blue_final.pth (torch, 139895 bytes, 7 tensors)

fc.0.weight f4 [128, 125]
000000 80 1b cf bd 1d 29 6a 3e 47 bd 98 3d 10 37 b3 3d
       -0.10112667 0.22867246 0.07457977 0.08750737
000010 28 e7 35 3e 60 20 f7 3d 45 8f c7 3d cb 8f 61 3e
       0.1776396 0.12066722 0.09744123 0.22027509
000020 06 cf 17 3e 99 2d d2 3d 9b 1d fa bd c2 02 77 bd
       0.14825067 0.10262603 -0.12212678 -0.060305364
000030 65 a0 0c 3e e4 18 0b 3e b7 58 f3 3d ac 31 b4 bd
       0.1373306 0.13583714 0.118821554 -0.08798537
000040 08 94 6f bb 35 5e 82 bc c8 e9 c4 3b de 7a 5a 3e
       -0.003655674 -0.015914062 0.006009314 0.21335933
000050 16 1e 41 3d 11 ec 87 3c 74 ce fd 3d e0 6f 37 3e
       0.047147833 0.016592057 0.123928934 0.1791377
000060 64 fd e3 bd 3b 51 e8 3c 43 d3 5f 3e 8a 45 5b 3d
       -0.11132315 0.028359046 0.21857934 0.053533114
000070 23 5a 1d be 5e ec e1 bd 59 27 5d 3e 5c aa 7b 3d
       -0.15366416 -0.110314116 0.21597041 0.061441764
000080 d8 ac d5 3c a1 67 0f 3e 9f 8a 13 be 3b d7 16 be
       0.026083395 0.14004375 -0.14408349 -0.14730541
000090 d7 74 7a bd 8e 3c 8f bd 3c a6 23 3e a2 ce 96 3c
       -0.061146583 -0.06993972 0.15981382 0.018409077
0000a0 61 da ed be 2f 28 56 3d 71 41 96 3e 90 d3 05 3e
       -0.46455672 0.052284416 0.29346803 0.13068986
0000b0 11 3b 99 bd 6a 2f 4e 3e 87 ea e8 3e cb 5e 4b 3e
       -0.07481969 0.20135275 0.4549143 0.1986038
0000c0 78 63 be 3d 20 1a d7 3d 33 cd 50 3e 3a 91 e9 ba
       0.09296316 0.1050303 0.20390777 -0.001781977
0000d0 62 3f 0c 3e d2 d1 72 3d 2f 80 91 3d d0 c4 9a 3c
       0.13696054 0.05928213 0.07104527 0.018892676
0000e0 05 33 9c bd 81 c7 d6 3d 3b 31 21 3e 6c f1 0d 3e
       -0.07626919 0.10487271 0.15741436 0.13861626
0000f0 7e 42 01 3e 76 dd cb 3c 4f 81 25 3d d1 d2 6f 3c
       0.12623021 0.024885874 0.04040652 0.014637665
000100 91 9a 53 3d 95 3c f6 3d 74 5e 01 3e cb 41 26 3e
       0.051661078 0.12023274 0.12633687 0.16236036
000110 b8 14 da bc d7 ce 17 bc 94 7b 17 3c 40 4c df 3d
       -0.026621208 -0.009265623 0.009245772 0.109032154
000120 a9 23 d7 3d 71 18 8d 3d 5b 4d 20 3e 34 64 02 3e
       0.105048485 0.068894275 0.15654509 0.12733537
000130 49 99 58 3d 43 8e 91 3d 4b 63 00 3e 72 93 b3 3c
       0.05288056 0.071072124 0.12537877 0.021920893
000140 4e 7c e0 3c 28 c0 4c 3d bb c9 25 3d a1 3a 10 bd
       0.027403023 0.049987942 0.04047559 -0.035212163
000150 69 3e 02 3e 33 e4 b5 3d 5b b7 05 3e 99 3c 98 bd
       0.1271912 0.08881416 0.13058226 -0.07433433
000160 a8 cb cd 3d 9c c3 7b 3d f2 6c 9b 3d c2 79 11 3e
       0.1004861 0.061465845 0.07589139 0.14206603
000170 69 11 5b bd 26 6b dd 3d e6 dd 78 3e ce 4d ed 3c
       -0.0534834 0.108114526 0.24303398 0.028967764
000180 c2 b7 d3 bc 79 45 bb 3d 2b dd 0e bd 3a 1d 0d 3e
       -0.025844458 0.0914411 -0.03487889 0.1378068
000190 95 82 ea be d9 0f c2 be e8 60 54 3d 3d b0 e5 3c
       -0.4580275 -0.37902716 0.05185023 0.028038139
0001a0 e3 47 0e 3e 45 88 e0 be 11 eb 07 be c7 18 ec bc
       0.1389461 -0.43853965 -0.13273264 -0.028820409
0001b0 6e ba 18 3e 7e c0 a7 bc d9 3c ee be c4 36 b0 be
       0.14914867 -0.02047753 -0.46530798 -0.34416783
0001c0 bc e6 d0 be 75 18 cb be 91 67 92 bc f5 96 48 bf
       -0.40801036 -0.39667097 -0.01787165 -0.7835534
0001d0 3b a3 54 bf 1a 30 2f bf 93 45 90 be 88 a8 33 3e
       -0.8306157 -0.6843277 -0.2817808 0.17544758
0001e0 ff 3c 69 bf 0b 02 66 bf 29 c1 d2 be 70 7c 91 be
       -0.911087 -0.8984687 -0.41162995 -0.2841525
0001f0 c6 fc 94 3e 9e 7d ef 3d aa fe e6 bd 0c 76 b1 3a
       0.290991 0.116938815 -0.11279042 0.0013539209
000200 a3 f4 dc bd f0 d3 36 3d e8 69 19 be 71 ff 5f bd
       -0.10788848 0.044635713 -0.14981806 -0.054686967
000210 e7 67 fe bd 33 cc 79 3b c3 79 05 be 78 d0 c9 3c
       -0.124221615 0.0038116097 -0.1303473 0.024635538
000220 57 ea 56 3e 0b c8 fa bc 72 56 99 be 36 e6 bb 3d
       0.20987831 -0.030612966 -0.29948765 0.091747686
000230 15 22 5a 3e da 60 1b 3d 85 40 9f be 89 70 88 be
       0.21302064 0.03793416 -0.31103912 -0.26648358
000240 2e ea aa bd 3d d4 09 be 8e 8d 07 bd 2e f8 46 be
       -0.083454475 -0.13459869 -0.03309398 -0.1943061
000250 c8 0e 47 3e 38 34 f5 3d 82 94 ee bd c3 26 b3 3e
       0.19439232 0.119728506 -0.11649419 0.3499051
000260 0f 3e 12 bf 16 d5 f2 bd 48 df a9 be 71 06 e4 bc
       -0.57125944 -0.11857049 -0.33178163 -0.027835103
000270 87 f0 93 3e ba bb 20 bf 65 13 3c bd c0 89 cf bd
       0.28894445 -0.6278645 -0.045916934 -0.101336956
000280 e7 e2 b2 be 5b f0 d4 be 95 22 c7 bd 0e d3 78 3d
       -0.34938738 -0.41589627 -0.09723393 0.060748152
000290 19 23 c1 bd 05 a9 da be ab 20 87 bd 91 a3 b7 3e
       -0.094305225 -0.42707077 -0.06598028 0.3586698
0002a0 14 31 8e 3e 7f 60 08 be f8 00 b3 3d 8b d7 8e 3e
       0.2777182 -0.1331806 0.08740419 0.2789882
0002b0 8d ec 86 3e 07 a6 e5 be ee c7 81 bd 21 cd f7 bd
       0.2635235 -0.4485323 -0.06336962 -0.12099672
0002c0 3d ba 35 3d 14 c9 7e 3d 5a 20 31 bc 63 d1 4e bd
       0.044367064 0.06220348 -0.010810936 -0.050492655
0002d0 d9 89 0c be d1 77 6d ba 5a f1 1c 3b 49 5e 81 bd
       -0.1372446 -0.00090586866 0.0023947568 -0.063168116
0002e0 8e 4d df 3d 4f a8 3b 3c 8d 90 7e 3d ac d9 a3 bd
       0.10903464 0.011453702 0.062149573 -0.08000502
0002f0 0a 8b 36 3c d7 76 7a bd 6f 70 de bd 14 2f c7 bc
       0.011141548 -0.06114849 -0.10861289 -0.02431444
000300 aa e3 be 3c e8 b7 88 bc 69 0e 8e bd 8e 6b 07 3d
       0.023301918 -0.016689256 -0.06936342 0.033061557
000310 b4 7e a0 bc d6 d1 80 3c 87 2c 95 be c2 eb ea bd
       -0.019591667 0.015725058 -0.29135534 -0.114707485
000320 4d 4d 36 bc c7 94 a4 bd 3a e5 08 3d db ca 1c 3d
       -0.011126828 -0.080361895 0.033421732 0.038279396
000330 cb bd 22 bc cc 5c b8 3d 11 78 3a bd 44 fe c4 3c
       -0.0099329455 0.090020746 -0.04552466 0.024047025
000340 3e 51 32 be e2 1e 0b bd 1b f3 72 3d 31 22 93 3d
       -0.17413804 -0.033965 0.059313875 0.07184256
000350 a1 dc 83 bd 7e 9b 3e be fd c5 da bd 7d 0d a9 3d
       -0.06438566 -0.18614003 -0.106822945 0.08254526
000360 aa cf 77 3b 03 2b 5a bd f5 e7 d6 bd 01 a5 93 bc
       0.0037812986 -0.053263675 -0.10493461 -0.018023016
000370 fb 9e fe bb 88 1a be 3d 8f 42 30 3e f3 9e b0 3d
       -0.007770417 0.09282404 0.1721289 0.08624067
000380 a0 6a 09 be 21 16 8a 3e f3 8a 25 3e 3c c5 2a 3e
       -0.1341958 0.26970008 0.16166286 0.16676801
000390 f9 10 cd be 9d b3 8c 3d 50 e0 96 3d 24 6c 03 bf
       -0.40052012 0.06870196 0.07367003 -0.51336884
0003a0 fa e3 a5 3e 8b af 04 bc 82 4a 88 3e df 84 90 be
       0.32400495 -0.008098493 0.26619345 -0.28226373
0003b0 c2 2b 08 bf 5e 71 5f 3e ab 94 06 3d 48 77 d6 3d
       -0.5319177 0.2182059 0.032856625 0.1047197
0003c0 eb 6f 1e 3c e1 46 1b 3e d8 d8 6b 3e 35 9b 42 be
       0.009670238 0.15163757 0.23031938 -0.1900452
0003d0 be ed 94 3d b1 14 b1 3e c6 90 d5 3c 8f ee 02 bf
       0.07271908 0.345861 0.02607001 -0.5114526
0003e0 ab 5f 12 bf 79 77 4c 3d ea 71 1c 3e 04 a2 68 3e
       -0.5717723 0.049918626 0.1527783 0.22718054
0003f0 41 13 e4 3d bd 0a 47 3e 9c 66 44 3c 05 b8 d6 bc
       0.11136485 0.1943769 0.011987355 -0.026210794

fc.0.bias f4 [128]
000000 09 28 79 3e c2 7d 23 3d 51 79 49 3c 3c 88 e7 ba
       0.24331678 0.039914854 0.0122969905 -0.0017664502
000010 43 14 4c be 33 8e 4c be c5 00 b4 bc 9a 0f 4e bd
       -0.19929604 -0.1997612 -0.021973023 -0.050307848
000020 9c c7 49 be 74 4a 28 3e b7 6f 7a bd 20 fe c9 bc
       -0.19705051 0.16434652 -0.061141696 -0.024657309
000030 a3 f4 a5 bb 18 79 2f be b9 60 88 be 5b 3b d4 3d
       -0.0050645634 -0.17136037 -0.26636294 0.10362884
000040 09 6b 9a 3c db 01 45 3e 24 11 b5 bb 77 63 a4 3d
       0.018849866 0.19238989 -0.005525725 0.08026784
000050 65 75 8f bd 2d bb 9d bd b4 93 50 3d ec d3 fb bc
       -0.07004813 -0.077017166 0.05092211 -0.0307407
000060 87 1f d5 3d ac b5 01 bd 93 08 00 be b5 c7 9f bd
       0.10406404 -0.031667396 -0.12503271 -0.07801763
000070 12 d2 ed bc a9 c6 03 be 36 cf 27 bd 1f e7 9e 3a
       -0.029030833 -0.12868752 -0.040969096 0.0012123323
000080 3f 1e 80 3d c9 7c df bb 3d 79 d3 3d 70 dd d2 be
       0.06255769 -0.0068202955 0.10325859 -0.41184568
000090 a4 85 12 be be 7b 38 bd 71 a1 29 be aa c0 f1 bd
       -0.14308792 -0.045039885 -0.16565491 -0.11804326
0000a0 b2 7f e0 3c 76 9a 06 bd 20 30 0a be 0b 09 10 3d
       0.02740464 -0.03286215 -0.1349492 0.035164874
0000b0 c1 ea fb bd e4 94 10 bd bb ae b9 bd 10 bc 39 be
       -0.12300635 -0.035298243 -0.0906653 -0.18138146
0000c0 61 9e ca 3c b9 9c 41 bd 8a 80 6d bd d8 e8 ec bd
       0.024733724 -0.047268603 -0.057983913 -0.11567849
0000d0 3b d6 37 be a1 4b 15 be c6 b2 ee bc fb 12 49 bd
       -0.17952816 -0.14579631 -0.02913798 -0.049090367
0000e0 a3 a4 28 bd b5 70 33 bd 0b 84 d5 3c 10 73 0e 3e
       -0.041172635 -0.043808658 0.02606394 0.1391108
0000f0 23 e4 11 3d 78 c5 49 3d d0 4b 60 bd 12 85 96 be
       0.03561796 0.049260587 -0.0547598 -0.293984
000100 8a b1 de bd 79 34 0b be 0e 71 3a 3d ae 2a 08 3e
       -0.10873707 -0.13594235 0.045517974 0.13297531
000110 7f c4 b3 3d 02 66 bb bc 87 d9 49 bd 81 bb 48 bd
       0.08777713 -0.02287579 -0.049279716 -0.049006943
000120 8c a1 1e 3e 4d e2 3e be a9 51 98 be 39 fa e5 bd
       0.15491313 -0.18641014 -0.29749802 -0.11229367
000130 e6 bb 2d bd ad 3a 67 bd c3 40 79 bc f6 b6 27 3e
       -0.042415522 -0.056452442 -0.015213194 0.16378388
000140 bd dd 62 bd 15 2d ce 3d 3b 01 8e be e9 1b 50 be
       -0.055387247 0.100671925 -0.27735314 -0.20323147
000150 0f 2b a3 3e b6 c0 6c be ef e8 93 bd ce 7d 72 3c
       0.3186879 -0.23120388 -0.07222163 0.014800502
000160 6d 8b fd bd de bd c8 bd de 6a 3b 3e e8 5b 63 be
       -0.12380109 -0.09801839 0.18302485 -0.22203028
000170 b8 f6 07 bd e1 9a ee 3d 75 3e a7 3d 88 67 32 be
       -0.033194274 0.116506346 0.081662096 -0.17422307
000180 14 cf cd 3d a6 70 94 3d 90 ee 7b bd 24 d0 8b be
       0.10049263 0.072480485 -0.061506808 -0.27307236
000190 f0 73 31 be bb e8 9f bc 90 db 81 bd c9 64 1a be
       -0.17329383 -0.019520154 -0.06340706 -0.15077509
0001a0 03 2e 9f 3d 7b e9 97 be a2 f8 0d bf 47 c5 3f 3b
       0.07772448 -0.2967032 -0.5545751 0.0029261874
0001b0 18 48 83 3d fa cb d8 bd b8 d4 5c 3e 44 e3 bc bc
       0.06410235 -0.105857804 0.21565521 -0.023057587
0001c0 d7 c0 cf 3d be b8 21 3d c4 c9 2c be 07 a9 16 bd
       0.10144203 0.039482825 -0.16873842 -0.03678229
0001d0 8c de 8c 3d 93 e7 c0 3d 23 3c c6 bc c0 49 a5 bd
       0.06878385 0.09419169 -0.024198597 -0.08070707
0001e0 08 30 1d 3e 50 3d e5 bc 75 d6 f5 3c 12 30 54 bc
       0.15350354 -0.027983338 0.030009488 -0.012950914
0001f0 bd 40 8b bd c5 8d 04 3c c9 3e be bc 33 b0 1d bd
       -0.06799457 0.008090441 -0.023223298 -0.038498115

fc.2.weight f4 [128, 128]
000000 94 c8 2f be 20 29 f7 bc 15 a1 6d be 7c de 37 3f
       -0.17166358 -0.030170977 -0.23205979 0.7182386
000010 9a f8 22 3e ea 05 42 3d 48 a8 de bd 3e 3e 70 3e
       0.15915146 0.04736892 -0.10871941 0.23461244
000020 aa 63 4c 3e 1b 1a 92 be f8 9a 4a 3e df 13 e6 3e
       0.19959894 -0.28535542 0.19785678 0.44937035
000030 0c 1a 08 bd c1 f3 12 3e 7b 44 4b 3e 65 cf a5 3e
       -0.033227965 0.14350797 0.19850342 0.32384792
000040 e8 a1 39 3e 09 ef bc 3e 54 17 37 be 3c 36 ba be
       0.18128169 0.3690112 -0.17879993 -0.36369503
000050 cf f0 3f 3e cf 8a c4 3d 75 bc a0 3e 58 b8 2c bf
       0.18744205 0.09596788 0.3139378 -0.67468786
000060 95 af a8 3e ce e9 80 3e 78 18 26 3d e6 ed 8c 3e
       0.32946458 0.2517838 0.04055068 0.27525252
000070 7c 02 db 3d ed 49 93 bd 11 a0 1c bd 36 31 9e 3e
       0.10693833 -0.071918346 -0.03823859 0.3089692
000080 10 30 8d bd 47 a1 07 bf c2 22 20 3e 05 b7 ca 3c
       -0.06893933 -0.52980465 0.15638259 0.024745474
000090 2c 25 2e 3e 4b ae c6 bd f0 b8 84 3d 15 51 6c be
       0.17006367 -0.097012125 0.064805865 -0.23077805
0000a0 c2 78 3d 3e 8d 1d 99 be 49 da 3e 3e 16 16 85 3e
       0.18503097 -0.29905358 0.18637957 0.25993413
0000b0 ab e0 36 be 5c 04 d3 3c 32 a8 d3 3e 24 02 d6 be
       -0.17859142 0.025758915 0.4133926 -0.41798508
0000c0 96 d9 23 bd 0f 87 24 3e d8 68 5d 3b 99 f8 d8 bd
       -0.040002428 0.16067146 0.0033784416 -0.10594291
0000d0 53 d0 aa 3e f2 98 56 3c ad bd 80 3e 1a 88 bf be
       0.33362064 0.013097988 0.2514471 -0.37408525
0000e0 b9 ea d8 3d 8b 39 91 be 1a f9 52 3e ac 51 b6 3e
       0.10591645 -0.28364214 0.20602837 0.35609186
0000f0 76 b5 41 be fa ce 0a bf c4 ae 1e 3f bc cc 19 be
       -0.18916878 -0.5422207 0.6198542 -0.15019506
000100 ca b8 2c 3e e7 b0 59 3e 6b 54 bb 3e 98 5d 06 3f
       0.16867366 0.21258889 0.36587843 0.5248656
000110 98 b5 d7 3e fb 80 d0 be 7c 81 d0 3e ee 75 02 be
       0.42130733 -0.40723404 0.4072379 -0.12740299
000120 c8 8f 2f bb 89 01 86 3c ac 1f 82 3e 71 d1 83 bd
       -0.002678858 0.016358154 0.2541479 -0.06436432
000130 0f 4e 03 3e cb ae b3 3e 9e 92 ad be 0c 11 7f 3e
       0.12822746 0.35094294 -0.33900923 0.24908847
000140 a6 7e 52 be 14 33 b2 3b 29 9d a3 3e f9 93 69 3e
       -0.20556125 0.005438218 0.3195584 0.22810353
000150 db e4 08 3e 31 c8 b4 bd ef 75 4e 3e e7 93 83 3c
       0.13368551 -0.08827246 0.20162176 0.016061736
000160 4f cd b7 3e b3 8a d8 bb 42 cf be bd 8a 8a 0f 3f
       0.35898826 -0.006608331 -0.09316875 0.5607077
000170 93 19 99 bd f0 6b d4 be 3a 0e 0e be 96 73 5a 3d
       -0.07475581 -0.414886 -0.13872615 0.053332888
000180 a4 95 11 bd 00 a9 b5 3e a5 71 ee 3e 8a 5c 41 3e
       -0.0355431 0.354805 0.4657108 0.18882957
000190 7f cb d5 3e 5d 2c 02 3e 53 76 cc be ca 30 4c 3e
       0.41756818 0.12712236 -0.39934024 0.19940487
0001a0 0a 98 a9 3e fa b0 dd 3c 73 ea 60 be 34 bf 9c 3c
       0.3312381 0.027061928 -0.21964435 0.019134142
0001b0 e7 1f 21 3c 0a a1 3e be 1f 1b f5 3e 7b ec 06 3f
       0.009834266 -0.18616119 0.47872254 0.5270459
0001c0 f3 04 c6 3e 70 56 c6 bd d4 d9 65 be d4 30 91 3e
       0.3867565 -0.096844554 -0.22446376 0.28357565
0001d0 e3 dc 80 bd cc b7 a8 3d a5 b7 d3 3d 47 c2 15 3e
       -0.06292131 0.082381815 0.10337762 0.14624892
0001e0 97 5f 84 3d 79 ca 35 be ca 8a 0b 3f ce 7e a4 3e
       0.06463545 -0.17753018 0.5450865 0.32127994
0001f0 c8 73 bd 3d 48 f3 31 3e ac 7e 88 be e7 8a dd 3d
       0.09250599 0.1737796 -0.26659143 0.10817509
000200 7f ae 83 bd da 87 54 3c 85 4e a1 be 26 e2 cf 3e
       -0.06429767 0.012971843 -0.31505218 0.40602225
000210 ee d3 75 3e 46 b2 ed bc d5 65 76 3d 48 83 5b 3d
       0.24006626 -0.029015671 0.06015571 0.053591996
000220 76 8a 36 3e f0 9a e8 3b 00 ce c4 bb 83 15 f6 3e
       0.17826256 0.007098548 -0.0060060024 0.48063287
000230 95 9f 7f 3e 2a fe 5b 3e f0 6b 02 be 0e fb f2 3e
       0.2496322 0.21483675 -0.12736487 0.47457165
000240 40 7f 0a 3d 47 8a 14 3f 18 a9 42 be 4f e7 11 bf
       0.03381276 0.58023494 -0.19009817 -0.56993574
000250 34 c7 03 3f fb b9 ac 3c a5 d4 29 be 81 3d 89 be
       0.51475835 0.021084776 -0.16585024 -0.26804736
000260 cb 3a c8 3e 70 33 84 3e 14 0a a6 3e d6 18 61 be
       0.39107355 0.25820494 0.32429564 -0.2198213
000270 ed ff bb bc 28 2f b4 ba 42 3a b4 3d 49 a9 de bd
       -0.022949183 -0.0013746964 0.08800174 -0.10872132
000280 6a 71 c4 3d c9 78 ac be 6f ee 6f 3d 6e c7 1d be
       0.095919445 -0.33685902 0.058576997 -0.15408108
000290 fa cb ca 3e b4 4c 8e 3d 48 d3 2d 3d 94 7e bc 3e
       0.39608747 0.06948224 0.04243782 0.3681532
0002a0 2e 7e 95 3e 20 ff 82 be b8 73 5f be 5e de da 3e
       0.2919783 -0.2558527 -0.21821487 0.42747778
0002b0 dd 99 94 3e 00 18 95 bd 14 7f 32 3e 1b 49 57 be
       0.29023638 -0.07279968 0.17431289 -0.21023981
0002c0 34 ac 40 3c 18 8a c8 3c 0e 51 66 be 29 cf a5 bd
       0.011759806 0.02447991 -0.22491857 -0.08096153
0002d0 2f 4c bb be b2 5a 97 3d ec 8e c7 bd 15 86 0c 3c
       -0.3658156 0.07390346 -0.09744057 0.0085768895
0002e0 53 76 06 bf 01 ad a4 3d bf cc 58 3e b0 5f 9b bb
       -0.525243 0.080408104 0.21171854 -0.0047416314
0002f0 30 0e 9a 3d 09 89 dd be b7 2e f5 3e df 13 c1 3d
       0.07522237 -0.43268612 0.47887203 0.09427618
000300 09 b0 be be 16 fa 09 be 7e 69 4e 3d 7a fb 13 3f
       -0.3724368 -0.13474306 0.050393574 0.578056
000310 d8 27 f5 3e e3 fd 08 bd e5 f8 0b bd 07 44 06 bc
       0.4788196 -0.03344525 -0.03417291 -0.00819493
000320 12 f9 08 bd 91 2f d1 3d 83 1d 14 3a 98 1d 2a be
       -0.033440657 0.10214151 0.00056501495 -0.16612852
000330 c5 c6 15 be db fe 6f be d3 1e de be e6 16 2d 3c
       -0.14626606 -0.23437063 -0.43382892 0.010564541
000340 19 93 87 be 46 44 05 be a8 dd e8 be 0f bb b9 3e
       -0.26479414 -0.13014325 -0.4548161 0.36275527
000350 9d 4b 36 3e 8c 07 81 be 19 f0 b2 3e 19 bc 3e 3e
       0.17802282 -0.2520107 0.34948805 0.18626441
000360 24 76 82 3e 05 8e 8a bd c8 dd e2 bd 0f bf 26 3e
       0.2548076 -0.06765369 -0.11077458 0.1628382
000370 ca b2 42 be ba 6f 0a bf 9c 63 df be a9 7d e3 3e
       -0.19013515 -0.5407673 -0.43630683 0.4443181
000380 d6 0d b2 bd 81 a2 b0 3e 04 36 96 3e 1f 3f 93 bd
       -0.08694045 0.3449898 0.29338086 -0.07189774
000390 aa ad 37 3e a9 7c 05 3e 02 07 df be 54 8c a6 3c
       0.17937341 0.13035835 -0.43560034 0.020330586
0003a0 d1 66 c4 3e c5 6c 87 be 18 97 96 be ec a6 03 3f
       0.38359693 -0.26450172 -0.2941215 0.5142658
0003b0 69 0e 8d bd 9e c6 4d be b1 f7 d5 3e 48 09 89 be
       -0.06887514 -0.20095298 0.41790536 -0.26764894
0003c0 7b 9d 14 3e 12 c0 19 bf cb 44 d1 bd 7c 3b 79 bd
       0.14513199 -0.600587 -0.10218199 -0.060847744
0003d0 da 16 98 3e ad 5f f4 3c 94 02 40 be c5 fb c4 bc
       0.29704934 0.029830778 -0.18750983 -0.024045834
0003e0 47 a5 04 bf 4b bf a0 be 1b e2 f6 3e ba 1a c0 3e
       -0.51814693 -0.31395945 0.4821938 0.3752039
0003f0 b9 b8 71 3e 47 77 66 3e 1a f1 9d 3e 19 c8 ed bd
       0.23605622 0.22506438 0.30848008 -0.11610431

fc.2.bias f4 [128]
000000 8b 69 6c 3e ac 35 b4 3c b0 10 9f 3d 92 19 8a 3d
       0.23087136 0.021998249 0.07766855 0.067431584
000010 42 08 cb bc 10 cd 8c 38 95 b8 38 3d e4 bd fe 3d
       -0.024784211 6.713916e-05 0.045097906 0.124385625
000020 ec a1 0f be 21 60 3a 3e 61 11 0b 3d 74 c6 5e 3a
       -0.14026612 0.18200733 0.03395212 0.00084982
000030 a6 37 ab bd bf e6 a4 3d e9 28 1e 3f 4a 14 42 3e
       -0.083602235 0.08051824 0.61781174 0.18953052
000040 5f d4 26 3c 8a 0e 31 3e 8d 96 3c bd b8 02 cb 3d
       0.010182469 0.17290702 -0.046042014 0.09912628
000050 f1 af 93 bd 8f 93 01 be 3f 3b 86 3d ef 43 3e 3d
       -0.072112925 -0.12653945 0.06554269 0.046451505
000060 37 2c 6d 3b 4e 29 06 3f c9 70 6d 3e 0d 8b ec 3d
       0.0036189684 0.52406776 0.23187555 0.11549959
000070 5f b2 80 3d 15 4f d7 3c 74 73 e8 bc 33 88 18 bd
       0.062840216 0.026282826 -0.028375365 -0.037239265
000080 a0 8a 54 3e e8 b5 9a 3d 42 c4 3a bd d9 19 93 bd
       0.20756006 0.07554227 -0.045597322 -0.071826644
000090 7c 8b 3f 3e 65 fb 19 3e 50 1a 51 3d e5 f5 a8 3d
       0.18705553 0.15037306 0.051050484 0.08250026
0000a0 ba 20 28 be b4 58 01 3e 2b ee d3 3d 69 c2 57 3e
       -0.16418734 0.12631494 0.10348161 0.21070255
0000b0 b5 5a 49 3d 4d 4a 2c 3e 41 51 8c 3d c5 81 bb 3e
       0.04915877 0.16825218 0.068514355 0.36622444
0000c0 75 24 5c ba 34 cd eb b9 d7 b8 84 3d 55 2d 80 3d
       -0.00083977665 -0.0004497558 0.06480568 0.062586464
0000d0 54 5a 97 3e 66 9a 1b 3e 5a ce 50 3e 6e 6f 50 be
       0.29561102 0.15195617 0.20391217 -0.20355007
0000e0 92 ec 9e 3d 49 c6 02 3d 0f 99 2c 3e 04 b5 2b 3e
       0.07759966 0.03192738 0.16855262 0.1676827
0000f0 22 c1 c2 3e 0b d4 b6 3d 0d 95 5b 3c c8 03 bc 3e
       0.38037974 0.08927163 0.013402236 0.36721635
000100 6e a8 86 3b 75 d4 2c bc fe d9 f6 bc de 11 cf bc
       0.004109434 -0.010548701 -0.030133244 -0.025277074
000110 85 67 4e 3e c8 27 cb 3d 87 bb 16 bb f0 23 e2 3b
       0.20156677 0.09919697 -0.0022999959 0.0069012567
000120 df 3a 3b 3e a1 1e d8 bc 54 ea 3c 3e 9e 0d 33 3e
       0.18284176 -0.026381793 0.18448764 0.17485663
000130 6b 42 44 3e 8d 6c 11 3d ca 29 64 bd a6 ae b8 3d
       0.19165961 0.035503913 -0.055703916 0.090176865
000140 5e fe 88 3d 63 61 66 3d 46 92 a3 bb ba 4b 8e 3d
       0.06689142 0.05624522 -0.0049918024 0.069480374
000150 6d 1a 96 3d 18 e4 e6 3d a1 93 cd 3c 01 e6 a3 bd
       0.07329259 0.11273974 0.025094809 -0.08002854
000160 9e a3 8b 3e 52 8f 88 bc 61 74 a3 bc 31 87 76 3e
       0.27273268 -0.016669903 -0.019952955 0.24075009
000170 75 00 d7 3d 0f 16 f3 3c 56 7a 2e 3e 3d 01 ce 3d
       0.10498134 0.029673604 0.17038855 0.1005883
000180 16 00 29 3e 7d 8d c1 3d 60 c7 da 3d 73 a2 29 3e
       0.16503939 0.09450815 0.10682559 0.16565876
000190 f9 c6 50 3e be 53 4f bd 8d 62 99 be 2d 03 11 3e
       0.20388402 -0.050616972 -0.29958 0.14161368
0001a0 4f 34 e7 3c 72 3a 32 3e d9 9d 09 3e 4c 5a cb bc
       0.028223185 0.17405108 0.1343912 -0.02482333
0001b0 2f 6e 0a 3e 54 33 3b 3e 30 c3 46 3e 59 cc d0 3c
       0.13518594 0.18281299 0.19410396 0.025488066
0001c0 5b e2 28 3e 2b 18 ab 3d ed 1b 93 bd e1 94 e2 3c
       0.16492598 0.08354219 -0.07183061 0.027658882
0001d0 ad 71 99 3d 8c 23 1a bd be 4f 2c 3e 20 32 86 3e
       0.07492385 -0.037631556 0.16827294 0.26210117
0001e0 ff 2e b9 3d b8 2b 30 3d 2b c4 92 3e b0 16 67 3e
       0.09042167 0.043010443 0.2866529 0.22567248
0001f0 b7 f9 10 bd 30 49 ae 3c 56 b8 6c 3d 35 9b 80 bb
       -0.035394397 0.021275133 0.057792984 -0.003924752

actor.weight f4 [10, 128]
000000 b5 e4 fd 3e 0c 76 cc 3d fd 12 1d 3f 6c 61 9b 3e
       0.49588552 0.09983453 0.613571 0.30347764
000010 71 37 45 3e b8 8c e8 bd 88 98 08 be 1b bd 44 3e
       0.1925943 -0.11354965 -0.13339436 0.19212763
000020 04 65 69 3e 43 a8 28 3e 47 5d c5 bd 9c 9c 73 bf
       0.2279244 0.16470437 -0.09636932 -0.9516084
000030 ae 60 81 3e d7 f2 a6 3e ab 2a 4e be f5 93 4f 3e
       0.25269073 0.32607147 -0.20133464 0.20271285
000040 d3 46 b9 bf 84 ae 56 bf e2 ab 80 bd 63 c8 8d bf
       -1.4474739 -0.8386004 -0.06282784 -1.1076778
000050 88 bf b6 3d 59 8e 00 3d 94 89 ae 3e a9 02 54 3e
       0.089232504 0.031385753 0.3408934 0.2070414
000060 aa 82 b5 be a7 a9 05 3e e1 b3 d6 3e a5 87 9e 3e
       -0.3545125 0.13052998 0.41934112 0.30962864
000070 35 2b d4 3e 9a ee 10 bf 8d cb f5 be 36 5d 72 be
       0.41439214 -0.5661408 -0.4800686 -0.2366837
000080 bc d4 88 bf a9 75 ff bc f9 df c1 3e 76 8f 90 3e
       -1.0689921 -0.031184034 0.3786619 0.28234452
000090 96 ca 34 bf 14 90 e9 3e 61 b8 ab bf 88 95 2c bf
       -0.7062162 0.45617735 -1.3415643 -0.67415667
0000a0 10 ad e7 3e f7 c5 5b be 1b 6d 3f bf 2b 8e 3b be
       0.45249224 -0.21462236 -0.74775857 -0.18315952
0000b0 e0 54 e8 3d 55 14 c9 3d f8 ac 36 3f 57 7b 2c 3e
       0.113443136 0.09818331 0.7135768 0.16843925
0000c0 5e 6f 7c be 7c 40 8a be c4 5d 48 3d be 7c a3 3e
       -0.24651858 -0.27002323 0.048917547 0.31931108
0000d0 ca 8c 85 3e 2a 76 c8 3e bc c2 0a 3e bf 48 f2 3c
       0.26083976 0.39152652 0.13550848 0.029575704
0000e0 83 f2 11 3f bb ec 9a 3e 07 7c 92 3e be 0b c6 bf
       0.5701067 0.30258736 0.2861025 -1.5472333
0000f0 8a bf b2 bf c0 4b da bf 05 fd 4d be f3 50 86 3e
       -1.3964703 -1.7054367 -0.2011605 0.26233634
000100 80 47 aa 3e f3 7d 4a bd 88 d4 84 3e 32 2d 93 3d
       0.33257675 -0.04943652 0.25943398 0.07186355
000110 29 d5 32 3f 99 8b 71 3e 44 80 3a be df 5e a4 3e
       0.69856507 0.23588409 -0.18212992 0.3210363
000120 54 ef a3 bf 5e a9 86 be 6a e3 b0 be a5 7e 1d bc
       -1.2807412 -0.26301092 -0.34548503 -0.009612714
000130 40 c8 b0 bf c5 7f 4b 3f 63 25 b7 3c 99 79 c2 3e
       -1.3811111 0.79491836 0.022356695 0.37983397
000140 f9 cb 9b be 85 1c c2 be cc 7b 20 3f d7 ea 87 3e
       -0.30429056 -0.37912384 0.626889 0.26546356
000150 36 71 af bf 2d 23 88 bf 26 8f fb 3e 9f a2 86 3c
       -1.3706424 -1.0635735 0.4913265 0.016434966
000160 80 99 10 bd 97 9e e7 3c 49 6d 25 3e fe 6a de 3e
       -0.03530264 0.028273864 0.1615497 0.43441004
000170 90 0c f1 3c 17 35 9d be 37 ef 92 3e b4 7c d9 be
       0.029424936 -0.30704567 0.2869813 -0.42477953
000180 77 43 e2 3e f8 c3 76 3e fe 86 9c 3e 24 b3 9b 3e
       0.44192097 0.24098194 0.3057174 0.3041011
000190 57 f0 f3 3d 89 6c 90 3e 32 b7 ed 3e 75 03 2d 3f
       0.119110756 0.28207806 0.4642883 0.675834
0001a0 0f 09 17 3f c4 68 fc bd 91 92 ae 3d 8f d1 65 3f
       0.589982 -0.1232467 0.08524049 0.89772886
0001b0 ed 76 2d 3e fe ea 8c 3e f2 2c 93 3d b0 06 2e 3e
       0.16939898 0.27523035 0.07186307 0.16994739
0001c0 83 2a 07 be e3 be d7 3e ff ae f4 3d a0 dd 1c 3d
       -0.1319981 0.42137823 0.1194744 0.038297296
0001d0 c3 e4 17 be 29 2c c1 3e 93 f5 5a 3e 87 8f 83 be
       -0.1483336 0.37729004 0.21382742 -0.2569544
0001e0 c6 54 00 3f 9f 15 bf be d4 b1 7b 3b ab 11 3e 3e
       0.50129354 -0.37321183 0.0038405554 0.18561427
0001f0 00 24 62 3e 8e 30 2e bf 1c 0b 74 3d 16 ae 83 be
       0.22084045 -0.6804284 0.059580907 -0.25718755
000200 2c 3d 63 bf 22 6b 9e bf f5 3f 45 bf 03 e7 af 3e
       -0.88765216 -1.2376444 -0.77050716 0.34355935
000210 f9 20 91 bf 1d 91 da be 6d 21 03 3f 7e 23 22 bf
       -1.1338187 -0.42688838 0.5122288 -0.63335407
000220 27 03 e8 3e e1 f6 ed be eb d4 ad 3e 36 52 2d bf
       0.45314905 -0.46477416 0.33951506 -0.6770357
000230 48 e9 24 bf 3a 65 c7 be e1 14 c5 be 20 28 87 3e
       -0.6441846 -0.38944417 -0.38492492 0.263978
000240 0a 60 e1 3e 4e 7e 45 3d 4b 7f 0c 3f 1a ed f3 bd
       0.44018584 0.048216157 0.54881734 -0.11910458
000250 89 6a 0b 3f c8 ba 48 3e 82 59 be 3d d5 49 18 bb
       0.54459435 0.19602501 0.09294416 -0.0023237367
000260 08 a7 59 bf 4f 8c e8 3e c9 e7 51 3c 9d 31 61 3e
       -0.85020494 0.45419547 0.01281161 0.21991582
000270 9c 10 9a 3e 40 6a be 3e d4 ef 04 bd c3 de 5a be
       0.30090797 0.37190437 -0.03245528 -0.2137404
000280 22 94 38 3f 56 6b c4 3e 64 b3 0c 3f f4 4d 85 3e
       0.7210103 0.3836314 0.5496123 0.26036036
000290 ac 07 71 bf 06 dc 8e 3e e5 a2 d8 3d 0f d0 09 3f
       -0.9415233 0.2790224 0.10577945 0.538331
0002a0 7e 58 94 3e a9 31 7d be 9d a9 f4 be c3 3a c2 3d
       0.28973764 -0.24725975 -0.47785655 0.09483864
0002b0 b8 86 1f be c9 2c 5c be 67 ad 9d 3d d1 22 59 3e
       -0.15578735 -0.21501459 0.076990895 0.21204688
0002c0 b7 f9 2c bf 0e ff 34 3e 81 3e f4 3e df 50 0a 3e
       -0.67568535 0.1767542 0.47703937 0.13507412
0002d0 ae 28 1c 3d 08 11 ac 3e 01 87 c1 3e f4 85 9b 3e
       0.038124733 0.33606744 0.37798312 0.30375636
0002e0 45 88 49 3e d3 17 09 3e 63 d0 36 be 2b 83 a5 3e
       0.19680889 0.13387994 -0.1785293 0.32326636
0002f0 15 cc e5 bd 8b 69 47 bd 0e 7c 0b 3d 03 82 2e be
       -0.11220566 -0.048684638 0.034053855 -0.17041783
000300 c5 0c ad bf ce a6 de 3e c8 94 6f 3e e7 24 87 3c
       -1.3519522 0.43486637 0.233966 0.016497089
000310 b7 62 d8 3e e8 f4 3c 3f cb 02 1f 3e 2d 33 f9 3d
       0.42262813 0.738112 0.15528409 0.12167964
000320 88 86 12 3f 13 a0 78 be a8 f0 d8 3c 5c a9 fa 3e
       0.5723653 -0.24279813 0.026481941 0.48957336
000330 00 24 b4 be 82 c7 a5 bf 56 9c 77 bf e0 5b 67 3e
       -0.35183716 -1.295151 -0.96722925 0.22593641
000340 03 3a 16 3f db 19 20 be 5f 55 80 bf 42 fe 91 bd
       0.5868227 -0.15634863 -1.0026053 -0.07128574
000350 fe a0 de be db 67 82 3d 4e 57 5b 3e 5b 4f 11 be
       -0.43482202 0.06367465 0.21420023 -0.14190428
000360 0d f3 3a 3e 45 16 67 3e 74 a5 0b 3e 53 09 ea 3e
       0.18256779 0.22567089 0.13637334 0.4571024
000370 62 1b e3 be 2b 66 b6 3e f8 9a 49 3d e6 62 2e bf
       -0.4435683 0.35624823 0.049220055 -0.6811966
000380 62 1e 0e be da 19 b4 3e be db f6 3e ec 61 0f bd
       -0.13878778 0.35175973 0.48214525 -0.035005495
000390 94 78 92 3e 40 ad 46 bd 0c 58 23 3e 5d f6 81 be
       0.2860762 -0.048505068 0.15951556 -0.25383273
0003a0 b4 86 a4 bd ec c8 a0 3e a4 c6 40 3e 15 b5 6f 3e
       -0.08033505 0.3140329 0.18825775 0.23408921
0003b0 3a f2 47 3e 93 dd 26 3e bc 7c 80 bf dc e7 36 bc
       0.19525996 0.16295461 -1.0038066 -0.011163678
0003c0 19 d8 c1 be 91 62 2c bf bf a6 1f bf 00 3a 0a bd
       -0.37860182 -0.673379 -0.6236381 -0.03374672
0003d0 9f 2d 65 3d 94 a2 3b be 06 51 26 bf f9 b3 e3 3e
       0.05595171 -0.18323737 -0.6496738 0.44473246
0003e0 b1 c2 b2 bf 83 32 a0 3d 02 5e f6 3d 65 92 8d be
       -1.3965665 0.07822134 0.12029649 -0.27650753
0003f0 b7 be 79 3e 12 5d 59 bf 4e 22 2a be 99 f3 e8 bc
       0.24389158 -0.8490764 -0.16614649 -0.028436469

actor.bias f4 [10]
000000 cf b1 cb 3d ca f7 be 3d 72 74 df bd b5 34 e5 3d
       0.09946024 0.09324606 -0.10910882 0.11191694
000010 de e6 8c 3d 7e 47 fc 3d 73 8d 82 bd 2a 4b 55 be
       0.06879972 0.123183236 -0.063746355 -0.20829454
000020 ed 42 f9 3d 26 63 0f 3e
       0.12170968 0.14002666

critic.weight f4 [1, 128]
000000 f1 37 e1 3b 73 32 70 bb 56 23 df ba 15 a5 51 3b
       0.006873124 -0.0036651164 -0.0017024081 0.0031989266
000010 8d 52 68 bb 4d d5 0b bb 2c b4 03 3c 03 42 91 ba
       -0.0035449595 -0.0021336854 0.008038562 -0.0011082295
000020 cc 04 08 bc 93 97 a7 3b a9 1c 19 bc da 1a 11 bc
       -0.008301925 0.0051145046 -0.009345212 -0.0088565
000030 57 e3 10 3b 76 55 9d 3b 7a 88 bc bf c6 2b 60 3b
       0.0022108161 0.0048014475 -1.4729149 0.0034205779
000040 3c 4e ed 3a 74 19 07 3c 53 ff 8b bc 21 f9 23 3b
       0.0018104981 0.008245815 -0.017089522 0.0025020319
000050 75 3b 97 3b f4 fc b8 bc 63 c2 24 3c 0b b6 aa 3b
       0.004615242 -0.022581555 0.010056111 0.0052096895
000060 29 62 46 bb 6b 83 76 3d fd 35 58 bb 42 bc 05 3c
       -0.003027091 0.060183924 -0.0032991164 0.00816256
000070 48 0f 6d 39 7c 44 fa bb 0a 8b 5b bc 3e f5 bb 3b
       0.00022607774 -0.0076375585 -0.013399849 0.0057360223
000080 7b ce 1e 3a d7 ed 29 bb 5c 2a 78 bb bd 3e b9 bc
       0.00060579897 -0.0025929117 -0.0037867045 -0.022612924
000090 14 83 ef bb ef 0b 7e 3b 1c 7e 07 3b 1c 47 2d ba
       -0.007309327 0.0038764437 0.0020674532 -0.00066100224
0000a0 59 38 bf bb 55 c4 6c 3b ce d2 db 3b 5e 4d 24 bb
       -0.0058355746 0.0036127765 0.0067084795 -0.0025070528
0000b0 b0 07 71 3b 5e 7b 6b ba e4 99 31 3a fa 17 7d 3c
       0.0036778264 -0.0008982922 0.00067749457 0.015447611
0000c0 6f 30 ae bb 07 db 9b bb 7e dd 89 3a 01 b2 05 3c
       -0.0053158323 -0.0047563347 0.001051828 0.008160115
0000d0 80 55 58 3d a9 64 a5 3b 5c 2e 2b 3b 0e 4c 9f bc
       0.052815914 0.0050474 0.0026120162 -0.019445445
0000e0 6a 20 58 bb 2f 53 84 3b 62 d2 2a 3a ec 7e 3a 3c
       -0.0032978305 0.0040382366 0.0006516335 0.0113828
0000f0 34 7b 26 bd 68 9f c7 ba 81 bd 38 3c ce 6c cd 3c
       -0.04064484 -0.0015230002 0.01127565 0.025076296
000100 09 bc 8d 3b 9f e3 66 3b 62 5d 1b bc 0c 07 b7 bb
       0.004325394 0.0035230888 -0.009482713 -0.005585557
000110 df b3 3f 3c d9 48 b0 bb 21 b9 48 3c 0c 9f 7d bc
       0.011700599 -0.005379778 0.012251169 -0.015479814
000120 69 10 a4 bb 84 0f 41 3c 8d f2 a5 3b 20 c4 47 bc
       -0.005006839 0.011783484 0.0050643147 -0.012192756
000130 47 34 47 b9 ae 19 9a 3a 95 b6 7d 3b f0 c6 f1 bb
       -0.00018997594 0.0011756921 0.0038713564 -0.0073784515
000140 8c 91 39 bc f5 d1 a5 b9 54 d2 6a bc a3 af b5 bc
       -0.011326205 -0.00031627683 -0.014332373 -0.022178477
000150 c4 f9 67 3b 71 0f e4 bb 7f 81 03 bc 74 6b 63 bb
       0.0035396675 -0.0069598486 -0.00802648 -0.0034701498
000160 e3 07 55 3c 59 66 4e bc 54 be 83 39 8d b4 61 3b
       0.013002369 -0.012597644 0.00025128073 0.0034439892
000170 9e 5d 00 ba f4 7b e7 ba dc ab c6 3c 87 36 1a 3b
       -0.00048967625 -0.0017660842 0.02425187 0.0023531036
000180 fd de 65 3c d0 c3 0a 3c 38 0e 17 bb fc 7b dd ba
       0.014030215 0.008469537 -0.0023049247 -0.0016897912
000190 a4 43 ee bb ee 61 a7 3c 8a b3 57 bd 4b 43 c1 ba
       -0.007271247 0.020432439 -0.052661456 -0.0014744786
0001a0 d7 3e b3 bb a1 7b 2f bc 03 0c 0d bc ca 9e 8d bb
       -0.0054701376 -0.010710628 -0.008608821 -0.0043219076
0001b0 90 4d fb 3a b3 a1 4b 3b ce 99 2a bc 44 f2 c2 3c
       0.0019172896 0.0031071722 -0.010412646 0.023797162
0001c0 92 bf 88 3c ca e7 f7 ba 4b ea c6 bc a1 a0 99 3b
       0.01669291 -0.0018913683 -0.024281641 0.004688338
0001d0 5e 09 81 bb 8f 60 00 bc 28 dd bb 3a 89 92 7c 3b
       -0.0039378842 -0.007835521 0.0014332877 0.003853949
0001e0 0b f8 40 bc 30 09 2a bb 94 32 6d 3b 35 9e 88 3c
       -0.011777888 -0.0025945418 0.0036193477 0.016677001
0001f0 27 22 ba ba 6c 4b 1e 3c 92 3f 06 3b 72 98 7e bc
       -0.0014200852 0.009661537 0.0020484668 -0.0155392755
